testSample/CULaneDataset/association_model_2025_5_22.pth (torch, 21968 bytes, 5 tensors)

model.0.weight f4 [64, 7]
-0.68189603 -0.011715391 -0.50313365 -0.1336488 0.0045892866 0.14201781 -0.00940307 1.2248621
-0.44306907 -0.0014971659 -0.28471765 -0.08710328 0.10823346 -0.0067237723 0.63466996 -0.55272907
0.08571409 0.016449202 0.16709009 0.091586374 0.07702876 -1.4903961 -0.2337425 -0.12115102
0.0065249624 0.22402743 0.063631184 0.0003027858 -1.3171793 -0.40980288 -0.06939256 0.1011693
-0.21209331 0.060767062 0.14487658 0.2250161 -0.32555357 0.111412 0.23846221 0.09764045
-0.021389404 0.24405038 -1.8572628 0.24502443 -0.3841991 -0.051665626 -0.31675795 -0.041790627
0.17451692 0.76438385 -0.46378958 0.0706164 -0.051882733 -0.0034227828 -0.13155334 -0.35747284
0.75756174 -0.13508001 -0.37964037 0.16513185 -0.060835164 -0.3428138 -0.3490592 -2.1252363
0.00050626375 0.13863528 -0.19397584 0.09772842 0.012064943 0.19751933 1.2853338 -0.29814243
-0.19956617 0.32024375 0.12069194 -0.43913972 -0.43009204 -0.3890471 -0.29267076 -0.31507882
0.07050446 0.1375395 0.03465794 0.055082906 -1.7337776 -0.09324098 -0.2119189 0.26618585
0.17674133 -0.14306484 -0.09906673 2.0050843 -0.024704617 -0.15934443 -0.203358 -0.20558645
0.09027046 -0.5258767 -1.4486191 -0.43913433 -0.069949985 0.22442837 -0.10583129 0.13141458
0.12291259 -1.103354 -0.20290956 -0.031265687 0.21233939 0.10362885 -0.085866086 0.16935447
1.7189529 -0.2836733 0.12659638 0.026009237 0.036525488 0.14984497 0.14024267 1.9613423
-0.071377635 -0.13529539 -0.102104664 0.008570694 0.17394876 -0.28099185 0.48480937 -0.2832542
-0.07811726 -0.08534171 0.05523826 -0.056077737 0.24860263 1.5485607 -0.3491285 0.03119916
-0.20855185 0.13647322 -0.18258877 0.4124785 2.2194126 -0.06551768 0.07471195 0.012542719
0.046861522 0.0082664965 -0.12240684 3.1846611 0.017438555 0.04986562 0.023323363 0.005041963
-0.034175966 0.24906857 -1.9302593 -0.023192031 -0.12213557 0.13461359 0.17734295 -0.060329072
0.03575535 -1.8484856 -0.12742823 0.1235161 0.12334872 -0.040023394 0.01598466 0.50654906
-1.479212 -0.014554264 -0.2748966 -0.15615875 0.20661572 0.028208498 0.06751028 -2.3159726
0.322126 0.18796203 -0.077526525 -0.0899677 0.11394142 0.29163623 -1.8562921 -0.34877428
-0.020210626 -0.11565126 -0.40257198 -0.18797125 0.09773402 -1.3687109 -0.101220615 -0.045753665
0.15204579 0.14526837 -0.024634898 -0.24598472 0.1455981 -0.36627614 -0.08868152 0.2587263
0.1000859 -0.056001678 0.38766897 -1.5633962 0.14798449 -0.5007626 -0.19162534 0.26176706
0.15731336 -0.13086653 1.1270832 -0.06953525 -0.21405819 0.031133965 -0.043720976 0.40206015
0.29630733 1.2648816 -0.35869318 -0.17349121 -0.287221 -0.1363842 -0.1904264 -0.1729797
1.5495396 0.04395174 -0.14594978 0.06149323 -0.048507217 -0.20469779 -0.45771962 1.6825429
-0.16126741 0.010781092 -0.24901658 -0.054528072 0.10828883 0.026502037 2.228118 0.06108971
0.06049084 -0.10137234 0.026554104 0.10659395 -0.5543247 -0.7934223 -0.41203573 -0.39115793
-0.05222025 0.2252447 -0.13590063 -0.08636085 1.6799076 0.027488358 -0.11727308 -0.03065574
00000000: bd90 2ebf e9f1 3fbc 5ecd 00bf 3bdb 08be
00000010: ba61 963b 1e6d 113e 560f 1abc 48c8 9c3f
00000020: f3d9 e2be 8d3c c4ba 83c6 91be 3463 b2bd
00000030: 81a9 dd3d 1753 dcbb bb79 223f a77f 0dbf
00000040: de8a af3d 7ac0 863c aa19 2b3e a391 bb3d
00000050: 41c1 9d3d 4dc5 bebf 325a 6fbe 071e f8bd
00000060: 5acf d53b 7267 653e 1151 823d 39bf 9e39
00000070: 5599 a8bf afd1 d1be b01d 8ebd da31 cf3d
00000080: fd2e 59be e2e6 783d 875a 143e 9f6a 663e
00000090: f5ae a6be fa2b e43d 702f 743e b7f7 c73d
000000a0: d538 afbc 58e8 793e caba edbf afe7 7a3e
000000b0: bfb5 c4be 569f 53bd 192e a2be a62c 2bbd
000000c0: 90b4 323e a9ae 433f d475 edbe 559f 903d
000000d0: fd82 54bd c450 60bb ebb5 06be ae06 b7be
000000e0: 91ef 413f 6a52 0abe 3960 c2be 5318 293e
000000f0: 4b2e 79bd 4a85 afbe e3b7 b2be df03 08c0
00000100: c9b6 043a 68f6 0d3e 9aa1 46be d625 c83d
00000110: 0aac 453c 8242 4a3e d185 a43f 20a6 98be
00000120: 135b 4cbe fdf6 a33e 562d f73d ecd6 e0be
00000130: 0635 dcbe 2e31 c7be f1d8 95be 0352 a1be
00000140: a464 903d 28d7 0c3e 7cf5 0d3d 9d9e 613d
00000150: 6dec ddbf 20f5 bebd 4501 59be 8349 883e
00000160: aefb 343e 977f 12be 7fe3 cabd 4d53 0040
00000170: 5661 cabc 302b 23be 143d 50be 4185 52be
00000180: b8df b83d db9f 06bf 5a6c b9bf 37d6 e0be
00000190: f041 8fbd 8dd0 653e 13be d8bd 8b91 063e
000001a0: 99b9 fb3d b43a 8dbf 86c7 4fbe 7310 00bd
000001b0: 7f6f 593e 5d3b d43d 8fda afbd 426b 2d3e
000001c0: a606 dc3f a03d 91be 7ba2 013e 5311 d53c
000001d0: c09b 153d f670 193e c69b 0f3e 440d fb3f
000001e0: 702e 92bd e08a 0abe 401c d1bd 196c 0c3c
000001f0: a01f 323e 2ade 8fbe ef38 f83e b206 91be
00000200: f1fb 9fbd a2c7 aebd 8441 623d c5b1 65bd
00000210: b091 7e3e 3d37 c63f f9c0 b2be 6195 ff3c
00000220: 9e8e 55be a3bf 0b3e 8df8 3abe 6230 d33e
00000230: db0a 0e40 222e 86bd 9402 993d fa7f 4d3c
00000240: def1 3f3d 3370 073c 70b0 fabd 7dd1 4b40
00000250: 4ddb 8e3c e43f 4c3d a310 bf3c 0d37 a53b
00000260: 19fc 0bbd d50b 7f3e bd12 f7bf 37fd bdbc
00000270: 3722 fabd 25d8 093e 6499 353e 9e1b 77bd
00000280: 3474 123d 2d9b ecbf 8c7c 02be 02f6 fc3d
00000290: 419e fc3d 92ef 23bd 43f2 823c 33ad 013f
000002a0: d256 bdbf 0275 6ebc 3fbf 8cbe 14e8 1fbe
000002b0: 1293 533e 8215 e73c d442 8a3d e538 14c0
000002c0: b3ed a43e 1e79 403e 3ac6 9ebd fc40 b8bd
000002d0: 1f5a e93d 5851 953e fb9a edbf 8b92 b2be
000002e0: c190 a5bc 91da ecbd ea1d cebe 897b 40be
000002f0: c628 c83d eb31 afbf c14c cfbd 3268 3bbd
00000300: e4b1 1b3e 3bc1 143e 20cf c9bc 6be3 7bbe
00000310: ab17 153e 8c88 bbbe a89e b5bd c677 843e
00000320: d6f9 cc3d 0462 65bd 8c7c c63e 5e1d c8bf
00000330: 3f89 173e fa31 00bf 6f39 44be 5506 863e
00000340: c116 213e e001 06be 4344 903f 7f68 8ebd
00000350: 1232 5bbe a80c ff3c c414 33bd d4da cd3e
00000360: 98b5 973e a4e7 a13f a2a6 b7be aea7 31be
00000370: a20e 93be 4da8 0bbe 23ff 42be 9721 31be
00000380: 5057 c63f bd06 343d dc73 15be 53e0 7b3d
00000390: 81af 46bd 4c9c 51be 3a5a eabe 915d d73f
000003a0: 4923 25be 2da3 303c 34fe 7ebe d458 5fbd
000003b0: 89c6 dd3d cd1a d93c 7c99 0e40 3439 7a3d
000003c0: 3ec5 773d 4d9c cfbd fe87 d93c ee4d da3d
000003d0: 39e8 0dbf b91d 4bbf 59f6 d2be da45 c8be
000003e0: e7e4 55bd 8ca6 663e 8929 0bbe f5dd b0bd
000003f0: 3607 d73f 442f e13c de2c f0bd bf21 fbbc

model.0.bias f4 [64]
-0.7916792 1.2818612 -0.0477557 -1.4591026 -0.7850878 0.2606817 -1.9939607 0.8841019
0.81196463 -2.075001 1.2178506 -0.39804694 -1.846878 1.6569226 -0.9490021 -0.8233215
2.1590164 1.6811713 0.3555537 1.850237 2.2717102 2.9169023 -1.6956568 -1.8149805
-1.2821373 -2.8110256 -1.8861724 -1.360041 -0.0718689 -1.2194477 1.2014874 0.7725973
1.6333848 1.8289961 2.4845808 -0.67061186 2.0156488 1.4882473 0.3089655 0.5870051
1.386125 1.5901555 -0.053298637 -2.4202852 -0.39270502 -2.4760175 -1.9549627 1.3194247
0.45000196 -2.3143814 0.14082174 -2.4001875 0.21044485 1.5670009 0.9179387 0.6162061
-1.273713 1.7308977 -0.45724458 -2.6227818 -1.5073794 1.6710223 0.718793 1.0119886
00000000: 7dab 4abf 0714 a43f 7b9b 43bd e0c3 babf
00000010: 84fb 48bf 1278 853e 1b3a ffbf 8154 623f
00000020: eadc 4f3f d1cc 04c0 87e2 9b3f cfcc cbbe
00000030: 8066 ecbf 0a16 d43f cdf1 72bf 33c5 52bf
00000040: 532d 0a40 9f30 d73f 220b b63e 91d4 ec3f
00000050: b363 1140 87ae 3a40 480b d9bf 4851 e8bf
00000060: 131d a4bf d8e7 33c0 196e f1bf d315 aebf
00000070: 0030 93bd dd16 9cbf 57ca 993f f0c8 453f
00000080: c112 d13f 8b1c ea3f 5f03 1f40 38ad 2bbf
00000090: 6400 0140 e37e be3f ba30 9e3e f745 163f
000000a0: 8b6c b13f 378a cb3f ac4f 5abd f4e5 1ac0
000000b0: a210 c9be 1277 1ec0 383c fabf e9e2 a83f
000000c0: a866 e63e d31e 14c0 9333 103e ac9c 19c0
000000d0: db7e 573e 7c93 c83f 08fe 6a3f afbf 1d3f
000000e0: 0709 a3bf 0e8e dd3f f61b eabe a8db 27c0
000000f0: cff1 c0bf 0fe4 d53f d102 383f d888 813f

model.2.weight f4 [64, 64]
0.05122143 -0.017264197 0.048650905 0.13569345 0.077010505 0.07098566 0.19365455 -0.045418408
-0.25613084 0.103812814 0.02564378 0.0721849 0.1395126 -0.13250849 0.14019024 0.087918185
-0.17458138 -0.083679035 -0.026244191 -0.13224243 -0.2313937 -0.43223676 0.13728951 0.13156253
0.047177356 0.0068041724 0.20814759 0.16080768 -0.062940806 0.036715757 0.08067152 -0.115658455
-0.015115329 -0.072061434 0.0591023 -0.06757971 -0.12381165 -0.04590618 -0.019876052 0.15147564
-0.08205897 0.0014239977 0.01697589 0.14839303 0.10843282 0.12163184 0.18488109 0.02886247
0.008307609 0.13358626 0.08662641 0.09482835 -0.07392913 -0.022039186 -0.0674078 -0.073875606
0.064767934 -0.1494646 0.100799255 0.14719954 0.18708292 0.06693443 0.04847318 -0.07430159
-0.07923608 0.12016021 0.06652236 -0.078797236 0.09775452 0.05312285 -0.055747837 -0.035150822
0.10627726 0.060526397 0.18948923 0.050423738 -0.022489589 0.0903282 -0.15203531 0.058488507
0.009106185 0.0016603451 -0.052722488 0.17059577 -0.017065288 0.2610956 -0.040034905 -0.14129877
-0.10192387 -0.20015119 -0.10765075 -0.09141104 0.0685914 -0.05098917 -0.08151957 -0.049612917
-0.08652083 0.14624944 -0.04086622 -0.070178956 0.07851389 0.05928723 0.07452098 0.024548717
0.034645833 0.04542829 -0.014361183 -0.12269786 0.017233543 -0.13361447 -0.06895628 0.14342095
-0.10847306 -0.084309004 0.095643885 -0.17672995 -0.037850395 0.1700921 -0.054184522 0.043419305
-0.08966114 0.21209039 0.06739391 -0.20640388 -0.10833784 0.0075755874 0.07362114 0.06136396
-0.09640154 0.09251373 -0.012641797 0.031383544 0.07620099 0.3193788 -0.2398795 0.21275608
0.11129622 -0.21321832 0.09521964 -0.14287825 0.052295964 0.18090898 0.013871152 0.22381337
0.17618804 0.122722164 -0.13073422 0.35606614 -0.122098304 0.21822473 0.11697742 -0.1549478
0.18885542 -0.096788004 -0.05403913 0.114013225 0.30219078 0.04597913 0.1223885 0.05484585
-0.042124305 0.43864262 0.17999713 0.091677256 0.18961458 0.23017476 0.2622697 0.30253297
0.064515784 -0.03659813 -0.07559494 -0.25906998 0.16565649 -0.30093807 0.051110186 0.41631612
-0.06901321 -0.09991478 0.05751291 -0.066941336 0.062872574 0.08359786 -0.01858956 -0.071902625
0.17751901 0.21124338 0.026721103 -0.10566505 -0.21709712 0.53071344 0.06385226 0.018489577
-0.077928625 0.008315135 -0.031116495 0.20986313 0.0110589005 -0.14342403 -0.08274329 -0.17260122
-0.037500087 -0.20136768 0.15674481 0.048032206 0.08570332 -0.28257975 0.079550885 0.058624554
-0.06453419 0.04872965 -0.10815908 -0.43024853 -0.13062698 -0.33551836 -0.03945086 -0.0064566177
-0.14202724 0.10050491 -0.17504519 0.049791444 -0.009008735 -0.09740736 -0.122360095 -0.3233586
-0.045915436 -0.10883178 -0.18568392 -0.09740109 -0.0054860157 0.022609614 -0.13139999 0.009894199
0.06248251 -0.047571342 0.08573251 0.17497706 0.11410715 0.13394411 0.014891879 -0.079293296
-0.12757573 0.09908089 0.13969038 0.11095038 -0.29798567 -0.1605767 0.07650954 -0.22942166
-0.09826036 -0.13243999 -0.3906925 -0.040916547 -0.20481455 -0.112499885 0.048291497 0.19203603
00000000: 90cd 513d a56d 8dbc 2c46 473d 39f3 0a3e
00000010: afb7 9d3d ee60 913d 614d 463e a708 3abd
00000020: 9523 83be d09b d43d e812 d23c add5 933d
00000030: 64dc 0e3e 4eb0 07be 088e 0f3e 730e b43d
00000040: 76c5 32be ea5f abbd 0ffe d6bc 8f6a 07be
00000050: 78f2 6cbe 234e ddbe 9f95 0c3e 54b8 063e
00000060: 0b3d 413d 89f5 de3b a424 553e c5aa 243e
00000070: 1ce7 80bd 4363 163d 1c37 a53d 57de ecbd
00000080: 49a6 77bc f294 93bd 4115 723d 3b67 8abd
00000090: f690 fdbd 1e08 3cbd 1ad3 a2bc 6e1c 1b3e
000000a0: 890e a8bd 6fa5 ba3a 0611 8b3c 58f4 173e
000000b0: 0712 de3d 1d1a f93d 7851 3d3e fd70 ec3c
000000c0: a31c 083c d6ca 083e 3069 b13d 5e35 c23d
000000d0: 2868 97bd 868b b4bc 1a0d 8abd 184c 97bd
000000e0: 0da5 843d 400d 19be d76f ce3d 7abb 163e
000000f0: aa92 3f3e eb14 893d d08b 463d 6f2b 98bd
00000100: 8746 a2bd 8e16 f63d e03c 883d 7260 a1bd
00000110: 8633 c83d 5897 593d d857 64bd 4ffa 0fbd
00000120: e4a7 d93d 87ea 773d 7709 423e 1f89 4e3d
00000130: 163c b8bc fefd b83d 25af 1bbe a591 6f3d
00000140: 1c32 153c f09f d93a 89f3 57bd a8b0 2e3e
00000150: 81cc 8bbc 53ae 853e a4fb 23bd a0b0 10be
00000160: 76bd d0bd 6ff4 4cbe ff77 dcbd b635 bbbd
00000170: a679 8c3d 05da 50bd bbf3 a6bd ea36 4bbd
00000180: d531 b1bd 6ac2 153e 5663 27bd fcb9 8fbd
00000190: e4cb a03d 2bd7 723d 759e 983d 641a c93c
000001a0: cae8 0d3d 0413 3a3d 2b4b 6bbc 0449 fbbd
000001b0: 5c2d 8d3c 3bd2 08be f338 8dbd f1dc 123e
000001c0: 2027 debd 33aa acbd f1e0 c33d b2f8 34be
000001d0: 0409 1bbd a02c 2e3e 97f0 5dbd 71d8 313d
000001e0: 43a0 b7bd 392e 593e d105 8a3d 8a5b 53be
000001f0: 3be0 ddbd a23c f83b aec6 963d c758 7b3d
00000200: 2c6e c5bd d777 bd3d 8a1f 4fbc 088c 003d
00000210: 440f 9c3d 9e85 a33e f9a2 75be bbdc 593e
00000220: 46ef e33d e755 5abe 8402 c33d ad4e 12be
00000230: 4b34 563d 3440 393e d443 633c 552f 653e
00000240: a36a 343e c255 fb3d 31df 05be 4d4e b63e
00000250: ad0e fabd 4e76 5f3e dc91 ef3d a3aa 1ebe
00000260: 5163 413e ca38 c6bd 2358 5dbd c47f e93d
00000270: c0b8 9a3e 9d54 3c3d d2a6 fa3d 0ba6 603d
00000280: 898a 2cbd c495 e03e 2b51 383e 49c1 bb3d
00000290: 532a 423e efb2 6b3e 3748 863e 9ae5 9a3e
000002a0: da20 843d ece7 15bd 85d1 9abd d2a4 84be
000002b0: dba1 293e 8e14 9abe ea58 513d 6327 d53e
000002c0: cc56 8dbd 1fa0 ccbd a892 6b3d 8a18 89bd
000002d0: 56c3 803d 5b35 ab3d 2249 98bc af41 93bd
000002e0: 8bc7 353e 2f50 583e 37e6 da3c eb66 d8bd
000002f0: b54e 5ebe d6dc 073f f9c4 823d 7477 973c
00000300: 0b99 9fbd 343c 083c 05e8 febc 5ce6 563e
00000310: 6430 353c c0dd 12be 5075 a9bd 60be 30be
00000320: b199 19bd 5433 4ebe b681 203e 6bbd 443d
00000330: 3985 af3d 4bae 90be 93eb a23d 4d20 703d
00000340: 802a 84bd be98 473d 8282 ddbd 8949 dcbe
00000350: 14c3 05be 10c9 abbe 3a97 21bd 0992 d3bb
00000360: 976f 11be 85d5 cd3d 0c3f 33be 1df2 4b3d
00000370: 6099 13bc 837d c7bd ee97 fabd 428f a5be
00000380: d311 3cbd 32e3 debd ed23 3ebe 397a c7bd
00000390: 09c4 b3bb cc37 b93c b88d 06be 471b 223c
000003a0: a9ed 7f3d 2bda 42bd 8794 af3d 302d 333e
000003b0: 02b1 e93d a528 093e 11fd 733c 8664 a2bd
000003c0: 36a3 02be ecea ca3d ff0a 0f3e f439 e33d
000003d0: 9491 98be 386e 24be 09b1 9c3d 83ed 6abe
000003e0: ba3c c9bd 599e 07be d908 c8be 1c98 27bd
000003f0: e8ba 51be 5766 e6bd 4ecd 453d 18a5 443e

model.2.bias f4 [64]
-2.0938587 1.5052739 1.3055513 -1.4104474 -2.1440518 -0.6638693 0.055357546 1.7051803
0.48324338 2.0499673 0.48674202 -0.07228205 -1.5153697 1.8054075 2.267952 0.69750327
-0.9889805 -2.2149549 -1.999715 1.235445 0.9894017 0.8611215 1.8992966 0.5508681
-1.5427415 -1.242476 -0.811312 1.4209654 0.750495 -1.7136953 0.18786187 2.1725814
0.19209297 1.0279492 -1.7715169 1.4641706 0.5128869 2.0654593 0.19525078 1.142209
0.12372924 -1.994335 0.32042828 -0.831207 -0.8850136 -1.2142549 1.2903918 1.9309146
1.2301477 0.9628177 0.22101037 -0.38585845 -1.3205721 1.3837894 -1.0599748 -1.1429207
1.83058 -0.6875012 -2.040199 1.2128278 1.0693372 -0.12292093 2.5073116 -0.36633217
00000000: c801 06c0 d1ac c03f 4e1c a73f 8a89 b4bf
00000010: 2538 09c0 57f3 29bf 98be 623d 5943 da3f
00000020: ad6b f73e aa32 0340 4036 f93e 9d08 94bd
00000030: a2f7 c1bf 9817 e73f 2026 1140 938f 323f
00000040: d32d 7dbf d2c1 0dc0 a9f6 ffbf 1023 9e3f
00000050: 6e49 7d3f 7572 5c3f 271c f33f b105 0d3f
00000060: 8e78 c5bf 7409 9fbf 25b2 4fbf 32e2 b53f
00000070: 7120 403f 5e5a dbbf dd5e 403e 930b 0b40
00000080: 05b4 443e d793 833f 11c1 e2bf f169 bb3f
00000090: 8e4c 033f 7c30 0440 d2ef 473e e833 923f
000000a0: c165 fd3d 5f46 ffbf 2d0f a43e fbc9 54bf
000000b0: 4090 62bf b46c 9bbf 8f2b a53f 3628 f73f
000000c0: 7b75 9d3f 397b 763f 8b50 623e 3d8f c5be
000000d0: 8208 a9bf 0320 b13f 41ad 87bf 3a4b 92bf
000000e0: 7250 ea3f 1400 30bf 9f92 02c0 f13d 9b3f
000000f0: 0be0 883f f8bd fbbd cb77 2040 e48f bbbe

model.4.weight f4 [1, 64]
-0.11780863 0.010581265 0.034738176 -0.03556649 -0.14521654 0.0032805712 -0.07732176 0.055760752
-0.013561693 0.08105906 -0.04802106 -0.011154924 -0.044368528 0.08909559 0.14181721 0.028662952
-0.014411628 -0.14780034 -0.09515444 0.0021757423 0.012943032 0.0071312455 0.032972068 0.008272338
-0.074961975 -0.06910964 -0.03742596 -0.0018787521 0.0014088264 -0.13010599 0.00532832 0.06495851
-0.006280898 0.0035529812 -0.06983927 0.014481644 -0.022442253 0.04366674 -0.020674525 0.1066029
0.031491376 -0.15792662 -0.020784663 -0.030532459 -0.041908707 -0.03577913 0.034337882 0.037657473
-0.0067470036 -0.0057954513 -0.047746267 0.0017648492 0.0042408207 -0.016279781 -0.04450903 -0.072865404
0.045047376 0.0027837765 -0.16986404 0.019724334 0.027327036 0.0006826079 0.112378895 -0.016175557
00000000: a745 f1bd 0b5d 2d3c 9e49 0e3d 2bae 11bd
00000010: a5b3 14be dafe 563b df5a 9ebd 6365 643d
00000020: dd31 5ebc 4b02 a63d bbb1 44bd 24c3 36bc
00000030: c6bb 35bd c077 b63d 8838 113e 91ce ea3c
00000040: c01e 6cbc f958 17be 55e0 c2bd e696 0e3b
00000050: 030f 543c 39ad e93b b80d 073d b388 073c
00000060: aa85 99bd 5b89 8dbd f74b 19bd 7640 f6ba
00000070: 5fa8 b83a 813a 05be 3099 ae3b f808 853d
00000080: fecf cdbb 22d9 683b e407 8fbd 6b44 6d3c
00000090: d1d8 b7bc e5db 323d 9f5d a9bc 9f52 da3d
000000a0: 1afd 003d 84b7 21be 9944 aabc 351f fabc
000000b0: 77a8 2bbd 238d 12bd e1a5 0c3d b93e 1a3d
000000c0: f815 ddbb c5e7 bdbb 9791 43bd 8352 e73a
000000d0: 95f6 8a3b 2d5d 85bc 1a4f 36bd 753a 95bd
000000e0: 9983 383d 0570 363b d7f0 2dbe ed94 a13c
000000f0: f3dc df3c 0af1 323a e826 e63d 9a82 84bc
